checkpoint.pth (torch_old, 28451 bytes, 6 tensors)

fc1.weight f4 [64, 37]
00000000: a355 283e d46a 953c e1c3 08bc 103b 82bd
00000010: 2aac 6cbf fc87 63be 2bf8 853e 4dbc 0e3e
00000020: fe67 573e 9a32 703e ea1b a03e 70f6 cfbe
00000030: f309 01bf d180 3a3a f3f8 4fbf d9dd d53d
00000040: 2ea4 6d3d c1f2 903d 73b5 093e 005b f8bd
00000050: 8bec be3d 05ee b73d 8a85 433e 6ed6 19bd
00000060: 2226 89bc b828 323b e70c c2bd a51e c03e
00000070: 30a3 4ebe 9bbd 45be d935 4bbe 5579 053e
00000080: 201f 9abc 3e95 9a3e 2b6d dabc a9b9 0fba
00000090: 0b74 57bc 9c63 c53e e2a7 873e b002 763e
000000a0: 225c 613e 1d59 9fbb d403 a83e e375 823d
000000b0: 02bc 45bb 9905 083d a4db 7a3d 0cfd 7b3e
000000c0: 5a37 9d3d f51d 2b3e 4dd8 ab3e 8ac7 8f3e
000000d0: 7757 e53e f728 493d ac8e 4e3e 22f9 4b3e
000000e0: dc47 bbbd 7186 1a3e 707c 1bbd ac32 d63d
000000f0: 21b7 833e 2234 ca3e ab71 a33e 24d2 1a3e
00000100: e72f 0e3e d57c 703d ae3e acbc b3f8 b23e
00000110: ce22 7c3e 3b2f 6a3e 702d 843e 2426 8c3e
00000120: fc6a ee3b 214d 953d 5d56 123e 9ab3 07bd
00000130: e973 073d 1235 aebe b5f2 6bbe 9c90 57be
00000140: 1d24 b6be 13a6 cfbe f593 843e 74f4 7bbf
00000150: 8683 6b3d a190 dbbe 58c3 523d bae6 15bf
00000160: e7b1 d8be cdb1 13be 5418 d43d f6f5 eebd
00000170: 7b82 a0be db9d 183f 8b78 a4bd d1a7 05be
00000180: e0cc 38be 9fc0 8bbd 57c7 7dbe 9ae4 fd3d
00000190: 5cf6 cdbe 2175 9abe ce8d b5be 0107 29bf
000001a0: 7ed9 5c3c 04d4 e4be 08a7 0fbf f202 68bf
000001b0: 5a24 a0bc 30e9 183e c281 b3bd 8c0d 5b3e
000001c0: e775 72be 7234 543d e67e 09bf c206 03bf
000001d0: f3d5 d2bc 9383 91be 9db7 34bc b7e1 6f3e
000001e0: 1774 be3e e685 04be d7c0 a3be ea67 ae3e
000001f0: bdee 56be 03f5 29be 1e69 2cbd 473d c1be
00000200: 2bdb e3be 9594 3cbe b75b 58bf 7cfd 11be
00000210: 2800 7abe 43bb 233e 11dd 77be 631b 75be
00000220: 0fdb 03be 64de d1be 3c22 ac3e dffd 1bbc
00000230: 3715 a4be 3be4 103e a212 f23d e0a1 99bd
00000240: a9c6 f1bd 7713 2bbf b906 273b f792 81bd
00000250: 186f 2dbe 1cd7 29be e5b6 81be bbb4 b0be
00000260: cfc2 b63c a26b e63d 9f0c 10be 4c55 25be
00000270: f5fb 2fbe 2b16 063d 9421 843d a17d 9abc
00000280: d6b7 babe c3db 89be e120 07bf 7592 5bbe
00000290: ae25 b9be a5d0 cebd f4d6 f1bc 3b8d 003f
000002a0: 7220 19be 2f3e 32be 44f5 c1bd 30fc e73d
000002b0: 5c5b 123f 5de0 06bd 5b12 4dbe b31b 3fbc
000002c0: f027 3dbe a2df e13d 6ed7 65bd b875 60be
000002d0: 664b 963d 38e4 a73d cf1c 6e3f 0852 9d3d
000002e0: a33f db3c 2d19 83bd 7e5a 5b3e 922b 58be
000002f0: 0ecc 28be bf3e 19be 26d5 b03e e6b7 6f3e
00000300: 7a17 ccbe 5e1d 07bf ceae 1ac0 9184 f2bc
00000310: ad6a 1fbd ccc8 cabb 22a6 04be a4fe ddbd
00000320: 616e fabb 2caa dabc 10ad 91bd 625b cebd
00000330: 325c 16bf 21bf 5e3e e66c f93d 70a5 e13d
00000340: 1fb8 ddbc 6b6a 18be aad4 44bd 1aeb df3d
00000350: bc16 e2bb 4943 29be 5845 a9be 72c9 1c3e
00000360: 3942 853c 9e59 1c3e cd63 acbd 61cc b63e
00000370: c120 d93d f1fe 163d e054 123d 6112 2d3d
00000380: bb95 a23d 0150 af3d 67cc c43c bbea 0cbe
00000390: c0fe 5a3e d9be 61bc d620 1b3e 2e3e a63e
000003a0: dc1f 303e 5fb0 253e 0221 0ebe 913c e13d
000003b0: 4848 5abc ce94 983c c514 3b3e a3fa 353d
000003c0: 3adc 2ebf cac5 0fbf 1a7a 18bd e3c2 9a3e
000003d0: 7b54 7ebe a8fe 02bf 0dfa 203e 21fb dfbd
000003e0: 4774 f1bc dc0c 193e 7d5b 13be 4aa6 be3d
000003f0: 323d 853d c5a9 003e f337 1d3d 0c8b 2bbc
0.16438918 0.018239416 -0.008347482 -0.063589215 -0.924502 -0.22219843 0.261659 0.13939019
0.21035764 0.23456803 0.31271297 -0.40617704 -0.50405806 0.0007114532 -0.8123924 0.10442705
0.058017902 0.07077552 0.13448124 -0.12126732 0.09322461 0.089809455 0.1909391 -0.03755801
-0.016741816 0.0027184915 -0.09475117 0.3752338 -0.20179439 -0.1931061 -0.1984476 0.13034566
-0.01881367 0.30191988 -0.026663383 -0.00054826826 -0.013150225 0.38552558 0.26495272 0.24024463
0.22007802 -0.004862918 0.3281542 0.06370141 -0.0030171876 0.033208463 0.061244622 0.24608248
0.07676573 0.16710646 0.33563462 0.28081924 0.44793293 0.049111333 0.20171613 0.19919255
-0.091445655 0.15090348 -0.03796047 0.10458884 0.25725654 0.394929 0.3192266 0.15119225
0.13885461 0.0587128 -0.021025982 0.34955367 0.24622652 0.2286958 0.25815916 0.2737285
0.007275937 0.07290102 0.14290757 -0.033130266 0.033069525 -0.34024864 -0.23041804 -0.21051258
-0.35574427 -0.40556392 0.25894132 -0.9841988 0.057498477 -0.4288378 0.051455826 -0.58555186
-0.4232323 -0.14423294 0.10356203 -0.11668007 -0.3134955 0.5961587 -0.08030804 -0.13052298
-0.18046904 -0.06823849 -0.24783073 0.12397118 -0.4022702 -0.30167487 -0.3545975 -0.6602631
0.013479589 -0.44693005 -0.56114244 -0.90629494 -0.019548584 0.14932704 -0.08764984 0.21391886
-0.23677789 0.05180783 -0.53709257 -0.51182187 -0.025736785 -0.28420696 -0.011030105 0.23425947
0.37197945 -0.12941703 -0.31983063 0.34063655 -0.20989509 -0.16597371 -0.042092435 -0.37742063
-0.4450315 -0.18416055 -0.84514946 -0.14256853 -0.24414122 0.15989403 -0.24205424 -0.23936228
-0.12876533 -0.40989983 0.3361987 -0.009520977 -0.32047436 0.14149563 0.1181996 -0.07501578
-0.118054695 -0.66826576 0.0025486185 -0.063268594 -0.1693691 -0.16585964 -0.2533485 -0.34512886
0.022309689 0.11250998 -0.14067315 -0.1614582 -0.17185958 0.032735985 0.06451717 -0.018858733
-0.3646838 -0.26925477 -0.52784544 -0.21442588 -0.3616156 -0.100983895 -0.029521443 0.502155
-0.14953783 -0.17406534 -0.09470609 0.11327398 0.57170653 -0.032928813 -0.20026533 -0.011664319
-0.18472266 0.11028983 -0.056113653 -0.21919906 0.073386 0.08197826 0.9301271 0.07681662
0.026763743 -0.06401286 0.21421239 -0.21110371 -0.1648409 -0.14965342 0.3453762 0.23409995
-0.3986166 -0.52779186 -2.4169192 -0.029604228 -0.038920093 -0.0061884876 -0.12954 -0.108395845
-0.0076425527 -0.026692472 -0.07113087 -0.10076024 -0.5873443 0.21752597 0.12178974 0.11017883
-0.027065335 -0.14884345 -0.048054375 0.10933514 -0.006899683 -0.16529574 -0.33060718 0.1531122
0.016266929 0.15268561 -0.08417473 0.35702804 0.106019504 0.036864225 0.035725474 0.042253856
0.07938715 0.085601814 0.024023248 -0.13761418 0.21386242 -0.013778412 0.15149245 0.32469314
0.17199653 0.16180561 -0.13879779 0.1099788 -0.013322897 0.018625643 0.18269642 0.04442848
-0.6830479 -0.5616118 -0.03722582 0.30226812 -0.24836914 -0.51169825 0.15720387 -0.10936571
-0.02947439 0.14946312 -0.14390369 0.09309061 0.06505813 0.12564762 0.038383435 -0.010470163

fc1.bias f4 [64]
00000000: 5970 353e 03b5 a13e e13b 84be d1ce b4bd
00000010: 0b0d 863c aa26 76bd 7218 f5bd 8cd2 273d
00000020: 16d5 b33d aa41 38be 99a1 403e 3b39 683e
00000030: eb8a 363e da50 d43d 291d 6c3d 333c 003d
00000040: 20b4 88bc 6ae5 5fbe b978 97bd eef2 843c
00000050: b9c6 a83c 7d68 663d a32b 583e cbe4 bebc
00000060: e776 00be 977a 1f3e 5773 593c 6240 bd3c
00000070: 8452 273e 0259 863e 35fe 2dbe 71f4 7cbe
00000080: 4b11 163e 58f8 9b3d b516 71be a7c8 5b3e
00000090: 96dc 15be 0424 9b3d 6d29 47be 4409 42be
000000a0: 32eb 47bc 3864 a73d c5e7 b93b 5c5c 273e
000000b0: 2cb3 12be f309 fabd d6d9 943c d84e eebd
000000c0: 217b 01be 9ca8 7f3b 9e7b 81be a942 b43d
000000d0: 6295 a4be 0c32 e3bd 7ac6 1dbe 2f26 323d
000000e0: 00db 183b dbf7 75bb 2c8f 85be a7f6 64bd
000000f0: 9f26 003c e012 0e3d df36 aabd a70f 9bbd
0.17718638 0.31583413 -0.25826934 -0.088285096 0.016363641 -0.060095467 -0.11967553 0.040972278
0.08780877 -0.17993799 0.18811645 0.22678082 0.1782643 0.10366984 0.057644997 0.03130741
-0.016687453 -0.21864858 -0.07396073 0.01622912 0.02060257 0.05625199 0.21110396 -0.023302456
-0.12545358 0.15574108 0.013272128 0.02310199 0.16340071 0.26239783 -0.16991504 -0.24702622
0.14655034 0.07615727 -0.23543818 0.21463262 -0.14634928 0.07575229 -0.19449396 -0.18948847
-0.012202071 0.08173412 0.005673381 0.16343826 -0.14326161 -0.12208929 0.018170279 -0.11636132
-0.12644626 0.003901041 -0.25289625 0.08801777 -0.3214522 -0.1109353 -0.15407744 0.043493446
0.0023323894 -0.0037531767 -0.26085794 -0.05589929 0.007821708 0.03468597 -0.08311247 -0.07571345

fc2.weight f4 [64, 64]
00000000: c380 4cbe 11e7 85bb 4294 8d3d a03a 8e3e
00000010: ef05 4a3e cd6b 2c3d 8bcf 22be e9fa d7bd
00000020: 2038 35be afa8 b23d 79ee f2bc 617e c4bd
00000030: ae97 27be f1e1 03bd d22d aebd 9eeb 7b3c
00000040: 3d2f 683e 9c13 6e3d 9664 8a3c f773 41bc
00000050: a37a 4dbe 3bc0 f23d 7de2 68bc 3824 27be
00000060: 0276 1bbe e83a bbbb 1623 883e 3f79 42bb
00000070: e898 3abe 4122 2abe 6217 82be 4b04 8bbe
00000080: 4c1e 503e 8096 d4bd e650 68bc 6ce0 303f
00000090: 5b99 9bbd be78 133f 5066 83bd 20d1 393e
000000a0: df84 943c 71d4 063d fd5f dd3e 93d3 33bf
000000b0: ab9b 03be dd87 73bd 2d86 26be 0137 2e3e
000000c0: d0e1 abbe f5eb f7bd 793a a2bd 5d9c a7be
000000d0: b364 0c3e d178 523e 6651 0cbe d81b 98bd
000000e0: c613 b2bd 7ba1 40bd 4a36 233e 12d3 163e
000000f0: 91ae 78be 4bb9 b2bd f19c 793e 27af a8bd
00000100: 4ff4 363c 1661 3b3d 27db c53e 50be 90be
00000110: 7898 f63e 9720 c8be 7c92 1cbe 1297 9d3e
00000120: 8ae8 4ebe 22c0 86be 4d94 86be d5da 8f3e
00000130: d9a3 5fbc 81a6 353e fc35 12bf ffbd cb3d
00000140: f637 823d 2509 233e 22ec 52be aeb3 74be
00000150: cd25 d73d f832 c53d bc01 43bd 21ab f9be
00000160: eb5c 6abd 3770 14bf 82bf 703c 2d9a 8abe
00000170: 8674 b1bd a6b0 4c3e f770 a9bd d2da 72be
00000180: 9993 483c b5cd 023f 6dc2 983e 4eae 443e
00000190: 4841 fc3d 027f 24be dfdc 093f d09a 1cbe
000001a0: 3779 863e c6a8 9a3d c48c fe3d 12b0 aebe
000001b0: afc7 b23d f981 4f3e e45e 77be 5f55 89be
000001c0: a620 84be de39 20be d166 aabd 58d6 5bbe
000001d0: 83c9 303a 1e03 12bf 0809 d1be 3b1c 92bd
000001e0: 1e0e 69be 19a1 ccbd 77c7 84bd a0de 8d3e
000001f0: 4787 f3bd d80c e2be 7cf5 ccbe 1b0f 62be
00000200: 5c78 f3bd 6400 f43c 117b 9bbe 9c47 1b3c
00000210: 76f7 2e3e 6528 2c3c 7187 d13d efa3 19be
00000220: 88c9 f03e a53a 64be f3b4 0d3c 1aed 893a
00000230: ba16 8fbd 62f3 febe 4d94 93be 1e26 213e
00000240: 9a96 8bbe a1df 0c3d 0fe6 053e e814 10bd
00000250: 6f49 5abd b773 7f3d 5b32 94be f4d3 bf3d
00000260: 1118 0fbe ed60 dd3e bf2f 313d d5fc aa3e
00000270: 43e3 b13c 9de2 443e ad85 843e eb44 2d3e
00000280: 3c8e e73d 1839 f3bd b13e 8ebe eb00 b7be
00000290: 2fc2 793d 82c4 02be 5408 9bbd cb84 fbbd
000002a0: acd1 5e3e 2b31 13bf bd8f 0a3e 1d2f 8e3d
000002b0: a7df 13bd 43d8 56bd e263 293e 6f54 5fbe
000002c0: f7aa 6dbd 1d7b 34be 4d2a 5dbd 8fa1 973e
000002d0: 542a df3d e0f4 a7bd 655c bb3d d297 05be
000002e0: e4ce 4b3d eeae 2fbe 99f6 793e bdef 443e
000002f0: 4cb5 07be 0224 0cbd 7c5e 88be 9cd5 09be
00000300: 0c3c c53e eb6d 97bd 63e1 e1be f907 b53e
00000310: 2725 e4bd c186 573d 8e29 28bd 93b7 27bf
00000320: 559a edbe 3346 19bf c3d2 9b3d 73b0 963e
00000330: 457a f53d bbf8 263f af69 adbd 4828 6abe
00000340: d39f 52bd 30ce 2bbf caa0 d63d f1a8 673d
00000350: 9696 f0be 33a6 68bd 309b abbd bee1 e33d
00000360: fe35 02bf 1368 1cbe bbce 723e 149c 4abe
00000370: 63f8 bebe 9115 21bf 07b6 bf3e 0f0c bcbe
00000380: 4013 2c3e c0f2 f7be 1e1a 2bbe 653e 613e
00000390: 9c33 febe bce2 ffbe 2821 9f3d 8fe5 883c
000003a0: a270 8bbe fff8 b33d 34ae 8e3d d711 9abd
000003b0: 9dd4 96be 63cd 58be 216c 1f3e 4d9c 32be
000003c0: 76a0 08bd 6995 f93d c2e0 46bf 3a6e aabe
000003d0: 381d 45bd 80e5 26bf 72a3 3cbf ed2c 6b3d
000003e0: 027e 593e 8c2f c5be 61a2 a7be 2b2c 48bf
000003f0: 1d44 1cbe 5405 863e 69c1 35bf 4368 debe
-0.19970994 -0.004086383 0.069130436 0.27779102 0.19728826 0.042094994 -0.15899484 -0.10545904
-0.17697191 0.0872358 -0.029654728 -0.09594417 -0.16366455 -0.032197896 -0.08504833 0.015376
0.2267427 0.05812417 0.016893666 -0.011807433 -0.20066313 0.11853071 -0.014214155 -0.1632241
-0.15181735 -0.0057138093 0.26589268 -0.002967432 -0.18222392 -0.1661463 -0.25408465 -0.27151713
0.20324057 -0.10380268 -0.014179444 0.6909244 -0.075976096 0.5760611 -0.06415999 0.18146181
0.018129764 0.032917444 0.43237296 -0.7024471 -0.12852351 -0.05945574 -0.16262121 0.1701317
-0.3357072 -0.12105552 -0.07921309 -0.32736483 0.13710289 0.205539 -0.13702926 -0.07427186
-0.08695178 -0.047029 0.15938678 0.14728954 -0.24285342 -0.08726748 0.24376275 -0.08236533
0.011166646 0.045746885 0.38643762 -0.28270197 0.481632 -0.39087364 -0.15290254 0.3077932
-0.20205894 -0.2631846 -0.2628502 0.28096643 -0.013649904 0.17739297 -0.57113624 0.09948348
0.0635833 0.15921457 -0.2059789 -0.23896667 0.10505257 0.09628862 -0.047609076 -0.48763373
-0.05721752 -0.57983726 0.0146940965 -0.27070752 -0.08664803 0.19989261 -0.082734995 -0.23716286
0.012242221 0.51095134 0.29835835 0.19207117 0.12317139 -0.16064075 0.5385265 -0.15293431
0.26264355 0.07551722 0.12429193 -0.34118706 0.08729493 0.20264424 -0.24157292 -0.26822945
-0.2580616 -0.15647075 -0.08320392 -0.21468484 0.0006743895 -0.57036006 -0.40827203 -0.07134291
-0.22759292 -0.099916644 -0.064833574 0.27708912 -0.118910365 -0.44150424 -0.4003104 -0.22076075
-0.11888191 0.029785343 -0.3036733 0.009477522 0.17086586 0.010507678 0.102309115 -0.15003942
0.47028756 -0.22287996 0.008649099 0.0010522932 -0.069867566 -0.4979506 -0.28824082 0.15737197
-0.27263337 0.034392957 0.13076042 -0.035176188 -0.053292688 0.062366214 -0.28944668 0.09366599
-0.13974024 0.4323801 0.043258425 0.3339602 0.021714812 0.19227071 0.25883237 0.16920821
0.11306426 -0.11876124 -0.27782205 -0.35742888 0.060976204 -0.12770274 -0.07569948 -0.122811876
0.21759671 -0.574969 0.13531394 0.0694258 -0.036101963 -0.052452337 0.16542009 -0.21809553
-0.058024373 -0.17625089 -0.05399542 0.29615447 0.10896745 -0.08201003 0.09148482 -0.13046196
0.049757853 -0.17156574 0.24410476 0.19232078 -0.13252753 -0.034214027 -0.26634586 -0.13460392
0.38522375 -0.07394012 -0.4411727 0.35357645 -0.11139899 0.052618746 -0.041055255 -0.6551449
-0.46406808 -0.5987274 0.07608559 0.29431495 0.11986212 0.6522328 -0.08467423 -0.22866929
-0.05142195 -0.6711149 0.10479887 0.0565576 -0.46989888 -0.056799125 -0.08379209 0.11127041
-0.50863636 -0.15274076 0.23711674 -0.19786102 -0.3729888 -0.6292353 0.37443563 -0.3672795
0.16804218 -0.4842739 -0.16709182 0.21996458 -0.4964875 -0.49977672 0.07769996 0.016711025
-0.2723437 0.087877266 0.0696682 -0.07522934 -0.29459086 -0.21172099 0.15568592 -0.17442437
-0.033356152 0.12186701 -0.77686703 -0.3328722 -0.04812357 -0.6519394 -0.736869 0.05741589
0.21239474 -0.38512838 -0.32741073 -0.78192395 -0.15260358 0.2617594 -0.70998245 -0.4343892

fc2.bias f4 [64]
00000000: 96a9 883c bf05 83bd 1423 583e 56c1 363d
00000010: 46bd 793e 2e2a 70be 1adf 303e 5610 ac3d
00000020: 9bc7 cfbd 7441 493f 1aeb 643d ffe7 ac3e
00000030: 4524 153e 8c25 46bd 9bca d8bc 591d 983e
00000040: 8860 8bbd f7ec 32bd 5a6e 14be d27a ff3e
00000050: debd ca3e 15af 663f 1c6a 16bd dc00 9bbe
00000060: 76c2 57be 7f46 05be 731b 9d3d bfb3 6fbe
00000070: 6fc0 a43d cda2 d43d eb47 d0bd 90b6 21bd
00000080: 460e 88bd cf18 9ebd 8c81 b7bd 8634 5f3d
00000090: 7c04 d8be 4064 babe 2e2f 773e 3330 673d
000000a0: 7a76 0cbe 682c 753f a76b f13e 96d1 06be
000000b0: b89f 0c3f 7480 96be f4b5 b8b9 096b 71be
000000c0: e7c0 3e3e c658 3cbe a9b2 313e 6a26 203f
000000d0: 3268 2c3d e2fa f6bd 569a 21be edbf fabd
000000e0: 8918 54be c8f2 0abc 9c14 b6bd 0cd0 10be
000000f0: 2bdf 3ebd 00e7 293d 0915 313e c670 39be
0.016682427 -0.0639758 0.21107131 0.044617973 0.24388608 -0.2345359 0.17272606 0.08401553
-0.101454936 0.786155 0.055888273 0.3377075 0.14564617 -0.04837565 -0.026463797 0.2970989
-0.06805521 -0.04368302 -0.14495221 0.49898392 0.39597982 0.90110904 -0.036722288 -0.30274093
-0.21070275 -0.13015173 0.07671251 -0.23408411 0.08044516 0.10382614 -0.10169967 -0.039480746
-0.066433474 -0.077195756 -0.08960256 0.05449345 -0.4219092 -0.3640461 0.24139091 0.05644245
-0.1371707 0.95770884 0.47152445 -0.13165888 0.5493121 -0.29394877 -0.0003523078 -0.23575987
0.18628274 -0.1839324 0.1735331 0.62558615 0.042091556 -0.12059571 -0.1578153 -0.12243638
-0.20712484 -0.008480735 -0.0889065 -0.14141864 -0.04659955 0.041480064 0.1729318 -0.18109426

fc3.weight f4 [4, 64]
00000000: 8374 073e 0960 f2bd 673e 533d 2330 b3be
00000010: 731c 6d3e bc72 d1bd 2278 c93d 7c83 cdbe
00000020: ea2a 733e 6c22 423e f72c eb3c 392b 5d3e
00000030: 8111 243e 6f10 103f 78d7 45bd fae9 673e
00000040: 8908 81be cf82 8bbe 17bd ae3d e839 3e3e
00000050: 2b5f 603d c7b5 8e3e 2dc1 43be ad65 b5bd
00000060: 76de 4abe 2893 16bd e91f b1be fe7a 20be
00000070: ac98 593e adb4 9e3e 394e 00bf db0f 233d
00000080: 0343 5a3e 0287 a2bc 319f 833e 3212 863e
00000090: eb5b 16be 6343 6fbe a880 f73d a8e8 373e
000000a0: 2d98 e6be 7d9b 9f3e 5999 8e3e 00e4 cf3c
000000b0: c5f1 8d3e 3662 cfbc 8bd8 373d b52f 89be
000000c0: 3be2 a13e 3982 113e be46 313e e854 023e
000000d0: 9544 0c3e bc16 dd3d 9e79 843e 449d a5be
000000e0: 4456 b6be eac6 043e 3f79 c13d 5220 c9be
000000f0: d735 e8be c28f d73b 43a5 e3be 0fc0 1ebe
00000100: f568 153e 9422 133e f8dc b03a 1feb 863e
00000110: 2939 533e 1d6b a2bd 627c fa3d 8c06 89bd
00000120: 8fd1 9a3d 5c85 543e f513 403e 6628 4f3e
00000130: b8bd c93e c5b1 e43e 4731 b03d b243 953e
00000140: 98fe 41be fd32 9fbd 9805 10be 3309 343e
00000150: 4155 563d d4d4 a73e e48d 563e 5265 84bd
00000160: 743a 42be 7da0 1cbe 9bd3 95bd 742b 45be
00000170: 2da6 803e 400b ac3e 6c39 7b3d e8cb 923d
00000180: a6fb 26bf a5a4 bfbe 18a1 613e 349e 613e
00000190: bb34 72be 5944 3abe 8e19 533e 23e5 533e
000001a0: 84ae 64be 17b6 953e 2369 a83e 3409 df3d
000001b0: e7e9 293e 4822 22bd 187e 833d c3fe dabe
000001c0: 2597 683e a366 56bd 77a1 203e 8742 0c3e
000001d0: 7951 103b 53d1 543e 3016 633e 6fe3 a83e
000001e0: 2cf5 8cbe f89b 213e d7b5 503e dbff 4cbe
000001f0: 9642 7cbe a3bb 743d 01ff d9be 4d06 143d
00000200: 8ec5 ef3d d3ef 9b3e e8f4 953e bea4 7d3e
00000210: 6e1b 6c3e fc10 84be 1f19 fdbc 4b44 44be
00000220: ba76 8d3e 4b46 703e 0192 babb c7a7 513e
00000230: d25e 1a3e 2430 023f 1f7f babe f956 773e
00000240: 3003 bdbd 02aa f4be 44f9 5cbe d82e 5a3e
00000250: 50cc 053e 274d 813e 7c69 5bbf 7f9f 873d
00000260: 68bc a93d 9b69 a3bd c672 8bbe 6c78 6b3d
00000270: 11f1 f43e 40c9 9d3e d195 c93d 47a9 e9bd
00000280: f813 b6bd c91c 93be ea46 903d 7274 7f3e
00000290: 7371 90bd 93a3 713d acae 1d3e 3dcf 80bd
000002a0: 74e8 12bf 1e03 9a3e c19e 403e 1931 a33d
000002b0: 5364 873e e919 8abe b324 253e 5fd4 8f3d
000002c0: cfe3 193e c9e4 c4be 9851 2fbd 868b 9a3e
000002d0: 2ce7 183e 27c0 cf3e 91e4 993d 0783 2c3e
000002e0: f111 9e3d 0686 9fbd d8c0 f6be 925c 23be
000002f0: f02c 22be 459d 693e a0aa 523c 2714 7bbe
00000300: e7f1 753e 9e1f f73d 6ec7 1f3e ae6e 0bbf
00000310: 5c3c bf3d a40a d7bd 2af4 abbd 8c7b cfbe
00000320: 7e1a 6a3e cce6 9f3e d15a 983e f730 9a3d
00000330: f559 d6bb 3ab5 c23e ddab cd3d 15df 4e3e
00000340: 38f9 573d d76d 5f3e 662c 6fbb 7c59 423e
00000350: 6da6 5a3d 5472 8b3e 7c8a 3abe 4317 98bb
00000360: 2a7c 44be 2b8f b5bd c39b bebe 10ce f4bb
00000370: 1afe b03d c8e0 3c3e 80af 023d 9b0a 683e
00000380: d4c6 e13e c523 c4be 41de 1c3f 7acd 213e
00000390: 4a2a 35be e420 46be 8fc0 c13e 4387 403e
000003a0: fb74 d3bd 98e6 993e f1d9 bd3e e6ed afbd
000003b0: 5c4f f13d b22e c6be 8b4e 963e ade3 34be
000003c0: c805 463e 999b 41be ac44 b83d 352d 3f3e
000003d0: 0204 e23d a640 1b3c 38c6 a23e 6c23 6abe
000003e0: aa81 7abc 028a a7be 0794 a4be cfa3 a03d
000003f0: 8ffe 33be dcdf 003f a95a 903c e745 fb3d
0.1322804 -0.118347235 0.051573183 -0.34997663 0.23155384 -0.10226962 0.09837367 -0.40139377
0.23746839 0.18958443 0.028707964 0.2159852 0.16022302 0.56275076 -0.04830119 0.22647849
-0.25201824 -0.27248237 0.0853216 0.18576777 0.05477826 0.2787306 -0.1911666 -0.08857284
-0.19811425 -0.036761433 -0.34594658 -0.15671918 0.21249646 0.3099722 -0.5011936 0.039810043
0.21314625 -0.019839767 0.2570739 0.26185757 -0.14683501 -0.2336555 0.12085086 0.17959845
-0.45037976 0.31173316 0.2785137 0.025377274 0.27723518 -0.025315385 0.044884246 -0.2679421
0.31617913 0.14209832 0.17312142 0.12727702 0.13698037 0.10795352 0.25874037 -0.32346547
-0.3561269 0.12966505 0.09446954 -0.3928247 -0.45353577 0.0065784166 -0.44462022 -0.15502952
0.14590819 0.1436866 0.0013493588 0.26351258 0.20627274 -0.079305865 0.122307554 -0.06690702
0.075595014 0.20753998 0.18757613 0.20230255 0.39402556 0.44666877 0.08603149 0.2915321
-0.18944776 -0.07773397 -0.14064634 0.17581634 0.0523274 0.32779562 0.20952564 -0.06464638
-0.1896761 -0.15295596 -0.07315751 -0.19254857 0.25126782 0.33602333 0.06133406 0.07167798
-0.65227735 -0.374303 0.22034109 0.22033006 -0.23652928 -0.18190135 0.20615217 0.20692877
-0.22332197 0.29240486 0.32892713 0.10890427 0.16593133 -0.039583474 0.06420535 -0.42772493
0.22713907 -0.052343976 0.15686594 0.13697253 0.0022021218 0.20782976 0.22176433 0.32986018
-0.275308 0.15782154 0.20381866 -0.20019476 -0.24634776 0.059749257 -0.42577365 0.03613882
0.117076024 0.3045641 0.2928841 0.24769875 0.23057339 -0.25794208 -0.030895768 -0.19166677
0.27629644 0.23464315 -0.0056936746 0.20474158 0.15075234 0.50854707 -0.3642511 0.24154271
-0.092291236 -0.47785956 -0.21579462 0.21306932 0.1306622 0.25254175 -0.8570783 0.06622218
0.08287889 -0.07979127 -0.27236003 0.05748789 0.4784017 0.30817604 0.09843028 -0.1140924
-0.088905275 -0.287329 0.07044776 0.24946764 -0.07052889 0.058993887 0.15398663 -0.062895276
-0.57385945 0.30080503 0.1881056 0.07968349 0.2644373 -0.26972893 0.16127281 0.070229284
0.15028308 -0.384558 -0.042802423 0.30184573 0.14931935 0.40576288 0.07514299 0.16846858
0.07718266 -0.07789235 -0.48194003 -0.15953282 -0.15837455 0.228139 0.012858063 -0.24519406
0.2401806 0.120665774 0.1560342 -0.5446576 0.093376845 -0.105000764 -0.0839618 -0.40523946
0.22861668 0.31230772 0.29756787 0.075288706 -0.0065414854 0.3802889 0.10042546 0.20202287
0.052727908 0.21819244 -0.003649497 0.18979448 0.053381372 0.27235663 -0.1821689 -0.004641445
-0.1918799 -0.08865198 -0.37228212 -0.0074708536 0.08642216 0.18445122 0.03190565 0.22660296
0.44097006 -0.3830854 0.6127663 0.1580104 -0.17691913 -0.19348484 0.37842223 0.18801598
-0.10325047 0.30058742 0.3708034 -0.085902974 0.11782715 -0.387075 0.293568 -0.17664976
0.19338143 -0.18907012 0.08997473 0.18669589 0.11035921 0.009475863 0.31791854 -0.22865075
-0.015289703 -0.3272248 -0.32144186 0.07843744 -0.17577575 0.5034158 0.017621355 0.12269192

fc3.bias f4 [4]
00000000: 87e2 253f 6841 ee3e 5b70 db3e f8a6 f13e
0.6479878 0.46534276 0.42859158 0.471977
